fcn.pth (torch, 237105 bytes, 8 tensors)

conv1.0.weight f4 [32, 3, 3, 3]
0	0xb9f38e49	-0.00046454582
1	0xbd6bddb2	-0.057584472
2	0xbdad4942	-0.084612384
3	0xbe8930ab	-0.26794943
4	0xbe66a7bb	-0.22524922
5	0xbad69c59	-0.00163735
6	0xbe79bf6b	-0.24389426
7	0xbe779004	-0.24176031
8	0xbe4b864c	-0.19875449
9	0xbdd7d72e	-0.10539089
10	0x3e11ce21	0.14238788
11	0x3e03aef2	0.12859705
12	0xbd3e99b7	-0.046533313
13	0xbc87e0ac	-0.016586624
14	0x3e4b2c44	0.19841105
15	0xbdaa4da5	-0.08315591
16	0x3e429867	0.1900345
17	0x3da341ee	0.079715595
18	0x3dbee1c5	0.09320406
19	0x3e3427a3	0.17593245
20	0xbd1d8bc1	-0.038463358
21	0x3e73ad30	0.23796535
22	0xbcdf9d3d	-0.027296657
23	0x3dc2ebb6	0.095176145
24	0x3d08256b	0.03323881
25	0x3e79c423	0.24391226
26	0x3e8296f4	0.25505793
27	0xbe28c425	-0.16481073
28	0xbe2208ac	-0.1582362
29	0xbd28a42a	-0.041172184
30	0xbe030b48	-0.12797272
31	0xbe088906	-0.1333352
32	0xbdb39956	-0.08769481
33	0xbe29b8ce	-0.16574404
34	0xbe22e169	-0.159063
35	0xbe277017	-0.16351353
36	0xbe4da856	-0.20083746
37	0xbe8bd056	-0.27307385
38	0xbe916cda	-0.2840336
39	0xbe9cc0d6	-0.30615872
40	0xbe4fc1cb	-0.2028877
41	0xbe8f768e	-0.28020138
42	0xbe81ef2d	-0.2537779
43	0xbe9d4d29	-0.3072293
44	0xbe8c8c75	-0.2745091
45	0x3df2261e	0.118236765
46	0x3e030643	0.12795357
47	0x3dacf668	0.08445436
48	0x3dd8d556	0.105875656
49	0x3cd7fb7e	0.026365038
50	0x3d45cef7	0.04829308
51	0x3c850c36	0.016241174
52	0x3d2667a2	0.040626176
53	0x3d7be6ff	0.061499592
54	0x3d830c5d	0.063988425
55	0xbcfbe03b	-0.03074657
56	0xbc630f36	-0.013858607
57	0x3d8c4237	0.06848567
58	0xbd6db177	-0.05803057
59	0x3e23ee95	0.1600898
60	0xbe3e583d	-0.18588348
61	0xbd76e651	-0.06027824
62	0xbd80c824	-0.06288174
63	0x3b2bfbea	0.0026242682
64	0x3e67cdbb	0.22637074
65	0x3e5b56ec	0.21419877
66	0x3dee1dca	0.116267756
67	0x3e473f9a	0.19457856
68	0xbd30356a	-0.04301969
69	0xbde65562	-0.11246754
70	0xbe33fbdd	-0.17576547
71	0x3c88c4f7	0.016695483
72	0xbdd09ae1	-0.10185791
73	0x3dde9c22	0.10869624
74	0xbd0db9b4	-0.03460093
75	0xbdac70ed	-0.084199764
76	0xbc006700	-0.007837057
77	0xbde70981	-0.112811096
78	0xbde9965a	-0.114056304
79	0x3bd40455	0.006470243
80	0x3e23854b	0.15968816
81	0xbc805537	-0.015665634
82	0xbd79d205	-0.060991306
83	0xbbd6a238	-0.0065500997
84	0xbd130779	-0.0358958
85	0xbd72d409	-0.059284244
86	0x3c2bd0a8	0.010486759
87	0xbd89d971	-0.06730927
88	0xbcb50084	-0.022094972
89	0x3dabb254	0.08383623
90	0xbe11787f	-0.14206122
91	0xbd97ef54	-0.07418695
92	0xbe1e13b5	-0.15437205
93	0xbd0c125b	-0.034197193
94	0xbdcfa80a	-0.10139473
95	0x3b366eef	0.0027837118
96	0xbdff7130	-0.12472761
97	0x3c680a91	0.0141626755
98	0xbd879cde	-0.06621717
99	0xbdc41ff9	-0.09576411
100	0xbe0a7239	-0.13520135
101	0xbe0ae658	-0.13564432
102	0xbd63854f	-0.055547055
103	0xbd31aabe	-0.043375723
104	0xbdca45f7	-0.09876626
105	0xbdb1b1a9	-0.08676464
106	0xbdae05c3	-0.08497193
107	0xbd8fe156	-0.07025401
108	0xbe1146a2	-0.141871
109	0xbe066d34	-0.13127595
110	0xbe13111c	-0.14361995
111	0xbdb57cb4	-0.08861676
112	0xbd6c0e0b	-0.05763058
113	0xbe01797c	-0.12643999
114	0xbe207045	-0.15667827
115	0xbe15b05c	-0.14618057
116	0xbe1ba457	-0.1519941
117	0xbd268cbd	-0.040661562
118	0xba02080d	-0.0004960306
119	0xbd93bb5a	-0.07213469
120	0x3d659dbf	0.05605864
121	0xbdc75c15	-0.0973436
122	0x3bbccb95	0.0057615736
123	0xbde068d2	-0.10957493
124	0xbd590315	-0.052981455
125	0xbdc65542	-0.096842304
126	0xbe0d48e3	-0.13797335
127	0xbe25703b	-0.16156094
128	0xbd9416ea	-0.07230933
129	0xbdc59a43	-0.09648564
130	0xbe0d1c4f	-0.1378033
131	0xbdafcdd4	-0.085841805
132	0x3c3e00c5	0.011596863
133	0xbdf54d01	-0.11977578
134	0xbde44433	-0.111458205
135	0xbdee6a79	-0.11641402
136	0x3cae44ff	0.021273134
137	0xbd8fcb79	-0.07021231
138	0xbe327b86	-0.17429933
139	0xbdd5701f	-0.10421776
140	0x3d248fed	0.04017632
141	0xbded3f2b	-0.11584314
142	0xbe3bafd6	-0.18328795
143	0xbe4312fd	-0.19050212
144	0x3e47a028	0.19494689
145	0xbd78bb84	-0.060725704
146	0x3e7aee74	0.24505025
147	0xbd0799bd	-0.0331056
148	0x3e4c251d	0.19936033
149	0x3dc7856f	0.09742247
150	0x3dacfe29	0.08446915
151	0x3e2b36fd	0.16720195
152	0x3e1d9195	0.15387566
153	0x3ddd9f5a	0.108214095
154	0x3d97f355	0.07419459
155	0xbd35fe97	-0.04443225
156	0xbdc83eee	-0.09777628
157	0xbe10edc1	-0.14153196
158	0xbc74922d	-0.014927429
159	0xbd7a5bb5	-0.061122615
160	0x3d8d362b	0.06895097
161	0x3e228f08	0.15874875
162	0x3d72d959	0.05928931
163	0x3dcf9eb2	0.101376906
164	0xbe694ac6	-0.2278243
165	0x3e1da929	0.1539656
166	0xbd24a79a	-0.0401989
167	0xbd8dfb77	-0.06932729
168	0xbd1e4a87	-0.038645294
169	0xbe390d5c	-0.18071502
170	0xbed624db	-0.41824993
171	0x3dc804e1	0.097665556
172	0xbd351ec0	-0.04421878
173	0xbe9d0894	-0.30670607
174	0x3e133a0d	0.14377613
175	0x3dc42c6b	0.095787846
176	0xbe7c263e	-0.24623963
177	0x3c85c814	0.016330756
178	0x3d3038eb	0.04302303
179	0xbedec6dd	-0.43511096
180	0x3e432aae	0.1905925
181	0x3dcd4802	0.100235
182	0x3e28821a	0.1645588
183	0x3ea57c23	0.3232127
184	0x3e624a48	0.22098649
185	0x3d929dfc	0.071590394
186	0x3d73039e	0.05932962
187	0xbda0a2e7	-0.07843571
188	0xbe1652d2	-0.14680031
189	0xbd29490b	-0.041329425
190	0xbd0b7264	-0.03404464
191	0x3dd502f4	0.10400954
192	0x3d270848	0.040779382
193	0x3e644206	0.22290811
194	0x3e29d156	0.16583762
195	0x3e07b04c	0.13250846
196	0xbdc4f0a4	-0.09616211
197	0x3d1add31	0.0378086
198	0x3dac3c9d	0.084099986
199	0xbe6ee630	-0.23329997
200	0xbe6c8763	-0.23098521
201	0xbc9dca01	-0.019261362
202	0x3cdca6d4	0.026935019
203	0xbe3b51a0	-0.18292856
204	0xbe180c71	-0.14848496
205	0x3da0cf0f	0.07851993
206	0x3df77fc3	0.120849155
207	0xbcd5131f	-0.026010094
208	0xbdfd8319	-0.123785205
209	0xbdf835af	-0.12119614
210	0x3da8ac98	0.08236045
211	0xbb3b520e	-0.0028582844
212	0x3d6dd256	0.05806192
213	0xbcadee0a	-0.02123167
214	0x3e191ccd	0.14952393
215	0xbe0f3060	-0.13983297
216	0xbd9c68b6	-0.076371595
217	0xbd808311	-0.06274999
218	0xbdcf0dba	-0.1011004
219	0xbddf501f	-0.10903954
220	0xbdd271fc	-0.10275647
221	0xbd4833bf	-0.048877474
222	0xbd81a8b2	-0.06331004
223	0xbdd361d3	-0.10321393
224	0xbd4431b9	-0.04789898
225	0xbda6be14	-0.08141723
226	0xbda01ff7	-0.07818597
227	0xbd6d0acd	-0.05787163
228	0xbcafbdaf	-0.021452753
229	0xbd9f2ee3	-0.07772615
230	0xbe250e88	-0.16118824
231	0xbd6ed5ec	-0.05830948
232	0xbd110e30	-0.03541392
233	0xbe25dcd9	-0.16197528
234	0xbe046c39	-0.12931909
235	0xbdedbc89	-0.11608226
236	0xbe203deb	-0.1564862
237	0xbe151b21	-0.1456113
238	0xbddb0ea2	-0.1069615
239	0xbe271de4	-0.16319996
240	0xbdd8c57d	-0.10584543
241	0xbe02381f	-0.12716721
242	0xbdecfffe	-0.11572264
243	0xbb874aeb	-0.004128804
244	0xbdd66065	-0.104676045
245	0xbdf177a6	-0.11790399
246	0x3c944230	0.018097967
247	0x3de37957	0.11107128
248	0x3dbe6736	0.0929703
249	0x3e7de08e	0.24792692
250	0x3df7cd00	0.120996475
251	0x3dc8e3f9	0.09809107
252	0xbea192ab	-0.3155721
253	0xbeba0c9c	-0.36337745
254	0xbe97d9b9	-0.29658297
255	0xbddc08a2	-0.10743834

conv1.0.bias f4 [32]
0	0xbd3dc403	-0.04632951
1	0x3d50ae30	0.05094737
2	0xbe6f2997	-0.23355709
3	0xbbe00eae	-0.0068376875
4	0x3dc50aa7	0.096211724
5	0xbbf581e5	-0.0074922913
6	0x3d8e3bd2	0.069450036
7	0xbd88bd82	-0.06676771
8	0x3d5996fb	0.0531225
9	0x3ebb6e47	0.36607572
10	0xbc684748	-0.014177151
11	0xbe6d2883	-0.23159985
12	0x3e8210c5	0.2540342
13	0xbc6a73ca	-0.014309833
14	0x3d3cd9da	0.046106197
15	0x3d834eb6	0.06411497
16	0x38ef99f7	0.00011425086
17	0xbd7ed6f8	-0.06221673
18	0xbd88dd97	-0.0668289
19	0xbdf36321	-0.11884142
20	0xbdaec22b	-0.08533128
21	0x3e41ad4d	0.18913765
22	0x3e223c6e	0.15843365
23	0x3da51a56	0.08061664
24	0xbc00fc74	-0.0078726895
25	0xbe8147be	-0.25250047
26	0x3b45357d	0.0030091696
27	0x3cd9f199	0.02660446
28	0x3d87cd91	0.066310056
29	0xbe7cbd6f	-0.24681638
30	0x3e25a115	0.16174729
31	0xbe65df7e	-0.22448537

conv2.0.weight f4 [64, 32, 3, 3]
0	0x3bc41fdf	0.0059852446
1	0xbc10bc40	-0.008833945
2	0x3d0778ce	0.033074193
3	0x3cbbe3f9	0.022935854
4	0x3b5a9ade	0.0033356468
5	0xbb00d1ee	-0.0019656378
6	0xbd29c905	-0.041451473
7	0xbbb60b54	-0.0055555496
8	0x3b8c3626	0.004278916
9	0xbc4745f6	-0.012162676
10	0xbc72a8d0	-0.014810756
11	0x3ca2f660	0.019892871
12	0x3be19f5e	0.006885453
13	0xbaa5f40d	-0.0012661234
14	0xbc5a788e	-0.013334407
15	0x3b712df1	0.0036801065
16	0xbc7c5350	-0.015400723
17	0xbccd5754	-0.025066055
18	0x3be5c313	0.00701178
19	0xbc9ac63f	-0.01889336
20	0xbc851a5b	-0.016247919
21	0xbc97a66c	-0.018511973
22	0xbbd2459a	-0.0064169886
23	0xbc6ce7cc	-0.014459562
24	0xbd141d34	-0.036160663
25	0xbd351118	-0.044205755
26	0xbcee1c44	-0.029066212
27	0xbb4d8c3e	-0.0031364108
28	0xbb120576	-0.0022281087
29	0x3b9f546d	0.0048623593
30	0x3950f299	0.000199268
31	0xb11bab5a	-2.265287e-09
32	0xba2f880d	-0.00066959934
33	0x3b1ef5ad	0.002425532
34	0x3a0d5b8d	0.0005392365
35	0xbb4c9bc6	-0.0031220778
36	0xba24b93e	-0.0006283707
37	0x3a69c4fc	0.00089175976
38	0x3c7067ef	0.014673217
39	0x3357bb11	5.0228724e-08
40	0xb3c87c85	-9.335876e-08
41	0x3adf5688	0.0017039338
42	0x3af20b80	0.0018466562
43	0xbaf686d5	-0.0018808494
44	0xba439af0	-0.0007461747
45	0x3d397c0f	0.045284327
46	0x3c449c0b	0.012000094
47	0x3b97f91d	0.004637851
48	0x3cf25f58	0.029586479
49	0x3d39290a	0.045205154
50	0xb8f77dee	-0.00011801334
51	0xbd313d16	-0.043271147
52	0xbd632502	-0.055455215
53	0xbdabf551	-0.083964
54	0xbc2bf807	-0.010496146
55	0x3c3b854a	0.011445353
56	0x3db03dc6	0.08605532
57	0xbc810678	-0.015750155
58	0xbc1f5940	-0.009725869
59	0x3d9ffdeb	0.07812103
60	0xbce5c625	-0.028048584
61	0xbd993251	-0.074803
62	0xbbd16f7d	-0.0063914643
63	0x3d8dcf04	0.06924251
64	0x3d7894f8	0.060688943
65	0x3d249a79	0.04018638
66	0xbc349ee5	-0.0110242115
67	0x3cdbbf5f	0.026824651
68	0x3d23bf71	0.039977495
69	0xbca040d3	-0.01956216
70	0x3cfbec84	0.030752428
71	0x3dafad59	0.08577985
72	0xbb0410da	-0.0020151646
73	0xb89d50d8	-7.501402e-05
74	0x3c1a14ce	0.009404374
75	0x39dba2df	0.00041892283
76	0x3092a736	1.0670422e-09
77	0x3a88dc4a	0.0010441628
78	0x3b489849	0.0030608347
79	0xba631bec	-0.00086635235
80	0xbb961215	-0.0045797923
81	0xbc8e04c6	-0.01733626
82	0xbc58a8d1	-0.013223843
83	0xbc30c795	-0.010789772
84	0x3b05d8f4	0.0020423504
85	0x3cbbaafc	0.02290868
86	0x3d8d3631	0.06895102
87	0xbcc1482e	-0.023593988
88	0xbd315726	-0.043296
89	0x3d3862c2	0.045016058
90	0x3d17cdae	0.037061386
91	0xbb958a44	-0.0045636017
92	0x3bc8258b	0.006107991
93	0xbcc6ddfa	-0.024275769
94	0x3c8aa6ad	0.01692518
95	0x3d1ec4e4	0.03876199
96	0x3a7ff417	0.000976385
97	0x3d94b6f3	0.07261457
98	0x3d35865d	0.044317592
99	0xbd1cccb7	-0.03828117
100	0xbc885910	-0.01664403
101	0xbc2363d6	-0.009972533
102	0xbcefbf99	-0.029266166
103	0x3c7b5e55	0.015342315
104	0xbcdfeeb4	-0.027335502
105	0xbaa044f7	-0.0012227584
106	0xbcf6a379	-0.030107247
107	0x3787be8e	1.6181988e-05
108	0xbac266a0	-0.001483161
109	0xbd8f0480	-0.0698328
110	0xbd839d94	-0.0642654
111	0x3d5e7c50	0.054317772
112	0xbb086bfa	-0.0020816312
113	0xbc8cefd4	-0.017204203
114	0x3da86b92	0.082236424
115	0x3d8da1a3	0.069155954
116	0x3d7de3e2	0.061984904
117	0x3ce674a5	0.028131792
118	0xbada160d	-0.0016638652
119	0xbcc445d8	-0.023959085
120	0xbca581c2	-0.020203475
121	0xbc5f9077	-0.013645283
122	0xbd1efd34	-0.038815692
123	0x3c4935e3	0.012280914
124	0xbc8a68a0	-0.016895592
125	0x3cad35ed	0.021143878
126	0x3c867e4e	0.016417649
127	0xbaee0f0f	-0.0018162447
128	0x3bd6904b	0.006547963
129	0xbcd4c58a	-0.0259731
130	0xbcaee7df	-0.0213508
131	0x3b0fa858	0.002192041
132	0xbdd2506d	-0.10269246
133	0xbd9dbb0f	-0.07701694
134	0xbc4c8852	-0.012483673
135	0x3c11b80d	0.008893979
136	0x3b485f14	0.003057425
137	0xbcf2b394	-0.029626645
138	0xbae0bde3	-0.0017146434
139	0x3c6eba5a	0.014570797
140	0x3ce15d39	0.027510272
141	0xbce236b4	-0.027613975
142	0x3c2ee2cd	0.010674191
143	0x3d72868f	0.059210356
144	0xbd28e853	-0.041237187
145	0xbd84d821	-0.06486536
146	0xbc03a253	-0.008034307
147	0xbc35bf94	-0.011093039
148	0xbd142eef	-0.036177572
149	0xbb20ce99	-0.0024537204
150	0xbcdf18c5	-0.02723349
151	0x3ab7efc8	0.0014033252
152	0x3d238ee6	0.0399312
153	0x3abc8617	0.0014383224
154	0x3ccb2a3f	0.024800418
155	0x3d950e62	0.07278134
156	0xbb6bfd53	-0.0036009147
157	0xbbfb5198	-0.007669639
158	0x3d0a8f1f	0.033827897
159	0xbd0d939f	-0.03456461
160	0xbc82604c	-0.015915059
161	0xbc09ed1d	-0.008418349
162	0x3d80c472	0.06287469
163	0x3c0548d9	0.008135044
164	0x3cc94be6	0.024572324
165	0x3d42c8e9	0.047554884
166	0x3c051680	0.00812304
167	0xbbf885d6	-0.007584314
168	0x3d897b55	0.06712977
169	0x3ce1d889	0.027569072
170	0xbd02815e	-0.031861655
171	0x3d000249	0.03125218
172	0x3b104f78	0.0022020023
173	0xbc71414f	-0.014725043
174	0x3bed9dc3	0.0072514727
175	0x3c34bfb9	0.011032038
176	0x3d07b065	0.033127207
177	0xbd4e23f5	-0.05032726
178	0x3bd8b8cc	0.0066138264
179	0x3d236d97	0.039899435
180	0x3c74e042	0.014946045
181	0xbcffb512	-0.03121427
182	0xbcd27650	-0.025691181
183	0xbc64090a	-0.013918171
184	0xbc12c623	-0.008958372
185	0xbc8f4bc9	-0.017492192
186	0xbcafd601	-0.02146435
187	0xbd2eff85	-0.04272415
188	0x3d66206e	0.05618327
189	0x3c930b95	0.017949859
190	0xbd1a03b3	-0.037601184
191	0xbcf07fe6	-0.029357862
192	0x3cab3691	0.020900043
193	0xbd204b64	-0.039134398
194	0xbd133cd5	-0.035946686
195	0x3c7f62d4	0.015587527
196	0x3b255bb2	0.0025231657
197	0xbc3a2f7f	-0.011363863
198	0x3cb4e382	0.02208114
199	0xbd0226bb	-0.031775218
200	0xbcb05c43	-0.021528369
201	0x3d1e803d	0.038696516
202	0x3d069460	0.032856345
203	0xbce498e5	-0.027904937
204	0xbd910dda	-0.0708272
205	0xbcd703c3	-0.02624691
206	0xb788313e	-1.6235394e-05
207	0xbda9f7a5	-0.082991876
208	0xbe1548eb	-0.14578597
209	0x3d5ab0fe	0.05339145
210	0xbdaad80a	-0.083419874
211	0xbd6c9b55	-0.057765324
212	0x3e10b6e3	0.14132266
213	0x3cb568a0	0.022144616
214	0x3db18f21	0.08669878
215	0x3e5b7e38	0.21434867
216	0x3c537db3	0.012908387
217	0xbd3e9953	-0.04653294
218	0xbd560687	-0.05225232
219	0x3b6f13a1	0.0036480206
220	0xbd1ccc96	-0.038281046
221	0xbd736e85	-0.05943157
222	0x3dce657f	0.100779526
223	0x3d249c25	0.040187974
224	0x3cb3759f	0.021906672
225	0xbc1bef28	-0.0095174685
226	0x3d290b34	0.04127045
227	0x3cbb7dd2	0.022887144
228	0xbd3c478f	-0.04596668
229	0x3cf1a9f7	0.02949999
230	0x3d5f084f	0.054451283
231	0xbccc8566	-0.024965953
232	0x3b30ffee	0.0027008015
233	0x3d7ea587	0.062169578
234	0xbc6fa41a	-0.014626527
235	0xbd7df8b0	-0.062004745
236	0xbd724540	-0.059148073
237	0xbd19531c	-0.037432775
238	0xbd2ea028	-0.042633206
239	0xbd6b9da3	-0.05752338
240	0xbc1795eb	-0.009252052
241	0xbd4739d2	-0.048639126
242	0xbdb097b0	-0.08622682
243	0x3d169869	0.036766443
244	0x3d04d825	0.032432694
245	0x3d5b73c3	0.053577196
246	0x3c373b53	0.011183578
247	0x3ceaab45	0.02864612
248	0xbc836051	-0.016037138
249	0x3ca9a829	0.020710068
250	0xbc8dc8b5	-0.017307619
251	0xbce4a447	-0.027910365
252	0xbd42ae74	-0.047529653
253	0xbd9ce64a	-0.07661112
254	0xbd944c71	-0.072411425
255	0xbc4cd376	-0.012501588

conv2.0.bias f4 [64]
0	0xbd5eed1f	-0.054425355
1	0x3e113c82	0.14183238
2	0x3d59dc6b	0.053188723
3	0xb7a6abd7	-1.9868761e-05
4	0x3e27d73f	0.16390704
5	0x3dc97500	0.09836769
6	0x3cd60d1c	0.026129298
7	0x3e076e9c	0.13225788
8	0x3d62e3b1	0.055392925
9	0xbe098a9e	-0.13431785
10	0x3d553c05	0.052059192
11	0x3dc66456	0.09687106
12	0x3d920c35	0.071312346
13	0xbd73c96f	-0.059518274
14	0x3d89a3dd	0.067207076
15	0x3c83ae72	0.016074393
16	0x3cbe6ae9	0.023244338
17	0xbd83d463	-0.06436994
18	0xbcca53bf	-0.024698136
19	0xbd45dc9c	-0.048306093
20	0xbcef37a0	-0.029201329
21	0x3d514532	0.05109138
22	0x3d941673	0.07230844
23	0x3cace77c	0.021106474
24	0x3da7c6e3	0.081922315
25	0x3d268a58	0.04065928
26	0xb36bb5a4	-5.4880402e-08
27	0xbdc7a70c	-0.097486585
28	0xbd53d4b6	-0.05171653
29	0xbd56e020	-0.052459836
30	0xbda691ca	-0.08133276
31	0x3c1ddb2f	0.009634777
32	0x3d8742e0	0.06604552
33	0x3e00a45b	0.12562697
34	0x3d8ca212	0.0686685
35	0x3b35c5b2	0.0027736244
36	0x3d9d61fd	0.076847054
37	0x3cd137c0	0.025539279
38	0xbd26d2d8	-0.04072842
39	0x3e0b10ef	0.13580678
40	0x3dd98b34	0.10622254
41	0x3d97afab	0.07406553
42	0xbd0400e2	-0.032227404
43	0x3dc113f0	0.09427631
44	0x3d5583a8	0.05212751
45	0xbd316c0d	-0.043315936
46	0x9c3e1aa2	-6.290015e-22
47	0xb36f92f6	-5.5780184e-08
48	0x3ced8b6f	0.028997151
49	0xbcb6e99a	-0.022328187
50	0xbe17b19e	-0.1481385
51	0x3dba5938	0.090990484
52	0xbd1acefd	-0.037795056
53	0x3d9b2535	0.07575456
54	0x3da4769c	0.080304354
55	0xbc9b93ac	-0.018991314
56	0xbd2f34a5	-0.042774815
57	0xbe4d8460	-0.20070028
58	0xbd568248	-0.05237034
59	0xbbc4b3ae	-0.006002865
60	0x3b2af754	0.002608736
61	0xbcc300da	-0.023804117
62	0xbb8566bd	-0.0040710852
63	0xbc46b10e	-0.012127174

conv3.0.weight f4 [64, 64, 3, 3]
0	0x0000b7d6	6.5948e-41
1	0x800057d0	-3.1501e-41
2	0x00008cc6	5.05e-41
3	0x000014de	7.486e-42
4	0x8000162a	-7.951e-42
5	0x800090df	-5.197e-41
6	0x00005abd	3.2551e-41
7	0x8000adc9	-6.2342e-41
8	0x00008e8e	5.1139e-41
9	0x00016c36	1.30654e-40
10	0x00008b91	5.0067e-41
11	0x00001e9b	1.0979e-41
12	0x00016f7d	1.3183e-40
13	0x0000dbe8	7.8887e-41
14	0x8001d290	-1.67371e-40
15	0x000001cc	6.45e-43
16	0x0000418b	2.3512e-41
17	0x00000777	2.678e-42
18	0x80003d5c	-2.2012e-41
19	0x8000a355	-5.8592e-41
20	0x80005e0d	-3.3739e-41
21	0x80003886	-2.0277e-41
22	0x80005549	-3.0595e-41
23	0x8000204c	-1.1586e-41
24	0x0000458f	2.4953e-41
25	0x80004b08	-2.6916e-41
26	0x00002242	1.229e-41
27	0x8001af27	-1.54668e-40
28	0x8000b901	-6.6367e-41
29	0x8000231f	-1.2599e-41
30	0x8000880b	-4.8803e-41
31	0x0000016a	5.07e-43
32	0x8000bf95	-6.8727e-41
33	0x0001c5ce	1.62794e-40
34	0x80010ae8	-9.5748e-41
35	0x00005877	3.1735e-41
36	0x00011203	9.8297e-41
37	0x0000b083	6.332e-41
38	0x00005690	3.1053e-41
39	0x0000c2c8	6.9874e-41
40	0x00007c1b	4.452e-41
41	0x8001223f	-1.0412e-40
42	0x00013714	1.11594e-40
43	0x8001921a	-1.44247e-40
44	0x00016321	1.27396e-40
45	0x80011485	-9.9197e-41
46	0x8002a522	-2.4291e-40
47	0x00017c79	1.36488e-40
48	0x80019f7c	-1.49048e-40
49	0x80023c40	-2.05285e-40
50	0x8002a6c6	-2.43498e-40
51	0x800189ae	-1.41226e-40
52	0x00006424	3.5924e-41
53	0x800192be	-1.44477e-40
54	0x8001787e	-1.3506e-40
55	0x000096ce	5.4099e-41
56	0x0000d34d	7.58e-41
57	0x0000ceac	7.414e-41
58	0x0001a36b	1.50459e-40
59	0x00004ec4	2.8256e-41
60	0x0000353e	1.91e-41
61	0x8000f637	-8.8325e-41
62	0x00019815	1.46392e-40
63	0x8000181e	-8.652e-42
64	0x000019be	9.235e-42
65	0x8000c452	-7.0426e-41
66	0x00009ae9	5.5571e-41
67	0x80006422	-3.5921e-41
68	0x0000871d	4.847e-41
69	0x00005a8f	3.2486e-41
70	0x000079fd	4.3761e-41
71	0x8000ab57	-6.1465e-41
72	0x00007a9d	4.3985e-41
73	0x00009f5f	5.7172e-41
74	0x0000b289	6.4046e-41
75	0x80004cca	-2.7547e-41
76	0x0000742e	4.1677e-41
77	0x8000c23e	-6.9681e-41
78	0x80008ce2	-5.0539e-41
79	0x0000a0c5	5.7673e-41
80	0x000066a6	3.6823e-41
81	0x118d9825	2.2339644e-28
82	0x0f9acd99	1.5264766e-29
83	0x0f2ea0c8	8.609828e-30
84	0x8f6e8830	-1.1760535e-29
85	0x8e32d51c	-2.2042802e-30
86	0x8bfb5042	-9.680244e-32
87	0x8cff175a	-3.9303025e-31
88	0x099499cb	3.577433e-33
89	0x885da273	-6.6695727e-34
90	0x8000aa45	-6.1081e-41
91	0x800057c7	-3.1489e-41
92	0x80005022	-2.8746e-41
93	0x800051af	-2.9303e-41
94	0x8000c72a	-7.1447e-41
95	0x00008a2d	4.9568e-41
96	0x8000af0c	-6.2795e-41
97	0x000048dd	2.6138e-41
98	0x0000be42	6.8252e-41
99	0x00007fe4	4.5879e-41
100	0x0000d283	7.5517e-41
101	0x0000e6a7	8.2742e-41
102	0x0000dde2	7.9597e-41
103	0x0000ded1	7.9931e-41
104	0x800058b6	-3.1823e-41
105	0x000037cb	2.0015e-41
106	0x8000e9ab	-8.3824e-41
107	0x8000daf4	-7.8546e-41
108	0x000045cd	2.504e-41
109	0x8000fe54	-9.1236e-41
110	0x8000e5f9	-8.2499e-41
111	0x000050ec	2.9029e-41
112	0x80009d22	-5.6369e-41
113	0x00002a84	1.5252e-41
114	0x80007c65	-4.4624e-41
115	0x00010d25	9.6551e-41
116	0x800034ec	-1.8985e-41
117	0x80005b06	-3.2653e-41
118	0x8000b6ff	-6.5647e-41
119	0x80009b88	-5.5794e-41
120	0x80004787	-2.5659e-41
121	0x00005aec	3.2617e-41
122	0x00008d50	5.0693e-41
123	0x8000459f	-2.4975e-41
124	0x80000ad9	-3.891e-42
125	0x800034f7	-1.9e-41
126	0x80001a57	-9.449e-42
127	0x8000911a	-5.2053e-41
128	0x80003dd8	-2.2185e-41
129	0x80007dc3	-4.5115e-41
130	0x00001f4b	1.1226e-41
131	0x00005ecf	3.4011e-41
132	0x80001d69	-1.055e-41
133	0x80009ac3	-5.5518e-41
134	0x0000bd29	6.7858e-41
135	0x000166e4	1.28746e-40
136	0x80009081	-5.1838e-41
137	0x8000f466	-8.7674e-41
138	0x8000ca70	-7.2621e-41
139	0x00006acc	3.8312e-41
140	0x8000cdb8	-7.3798e-41
141	0x8000d5ab	-7.665e-41
142	0x00005c02	3.3006e-41
143	0x00009db0	5.6568e-41
144	0x00007f6a	4.5708e-41
145	0x00009d6d	5.6474e-41
146	0x8000c7db	-7.1695e-41
147	0x800061e9	-3.5124e-41
148	0x80006848	-3.7409e-41
149	0x8000697c	-3.784e-41
150	0x0000ca9a	7.268e-41
151	0x00005948	3.2028e-41
152	0x80003070	-1.7376e-41
153	0x80005af8	-3.2633e-41
154	0x80004606	-2.512e-41
155	0x00005ac7	3.2565e-41
156	0x000018f7	8.956e-42
157	0x8000e34a	-8.1536e-41
158	0x0000d36d	7.5845e-41
159	0x00017a20	1.35646e-40
160	0x0001949e	1.45149e-40
161	0x0000f5e7	8.8213e-41
162	0x17cd197e	1.325425e-24
163	0x189bec9c	4.0305475e-24
164	0x1a0b487b	2.8803076e-23
165	0x97095c77	-4.4383795e-25
166	0x1671bc7d	1.9527301e-25
167	0x992e040c	-8.9964064e-24
168	0x1700da1b	4.163432e-25
169	0x178e16e8	9.182317e-25
170	0x99a99759	-1.753532e-23
171	0x00007a86	4.3953e-41
172	0x8000bc6b	-6.7592e-41
173	0x8000e83e	-8.3313e-41
174	0x8000b147	-6.3595e-41
175	0x8000b2dc	-6.4163e-41
176	0x0000eb8e	8.4501e-41
177	0x0000fd73	9.092e-41
178	0x000011ca	6.382e-42
179	0x80004d72	-2.7782e-41
180	0x8000442e	-2.4458e-41
181	0x8000ac25	-6.1754e-41
182	0x00003ea9	2.2478e-41
183	0x8000baf2	-6.7063e-41
184	0x8000cfc6	-7.4535e-41
185	0x80003984	-2.0633e-41
186	0x80009dde	-5.6632e-41
187	0x000074ef	4.1948e-41
188	0x00005ce9	3.333e-41
189	0x00007454	4.173e-41
190	0x0000b30a	6.4227e-41
191	0x8000d92c	-7.7907e-41
192	0x800099db	-5.5193e-41
193	0x00005a32	3.2356e-41
194	0x00008cd9	5.0527e-41
195	0x80006f10	-3.9842e-41
196	0x8000077d	-2.686e-42
197	0x00003e65	2.2383e-41
198	0x86316e49	-3.3371025e-35
199	0x098c4ad3	3.377414e-33
200	0x8c39209c	-1.4261695e-31
201	0x0420405a	1.8837458e-36
202	0x07b9aa05	2.7935635e-34
203	0x07a122f2	2.4245127e-34
204	0x0702426f	9.799636e-35
205	0x8827a1c8	-5.0444907e-34
206	0x08ce760d	1.2425928e-33
207	0x0000c8c3	7.202e-41
208	0x8000a91f	-6.0669e-41
209	0x8000d1a2	-7.5202e-41
210	0x8000ca05	-7.2471e-41
211	0x800048ce	-2.6117e-41
212	0x80008758	-4.8552e-41
213	0x8000c2c1	-6.9865e-41
214	0x800098a6	-5.476e-41
215	0x000058bf	3.1836e-41
216	0x8001427a	-1.15683e-40
217	0x000077bf	4.2957e-41
218	0x0000a6db	5.9856e-41
219	0x00020380	1.84927e-40
220	0x0000c747	7.1487e-41
221	0x80020dea	-1.88662e-40
222	0x8001f6a6	-1.80316e-40
223	0x0000a316	5.8504e-41
224	0x000102a5	9.2784e-41
225	0x800268a0	-2.21203e-40
226	0x80006105	-3.4804e-41
227	0x0000fc1f	9.0444e-41
228	0x000201dd	1.8434e-40
229	0x0000e3a4	8.1662e-41
230	0x8002369a	-2.03258e-40
231	0x00011e8c	1.02794e-40
232	0x0001c58d	1.62703e-40
233	0x000161e1	1.26948e-40
234	0x0002b155	2.47286e-40
235	0x00013d11	1.13742e-40
236	0x8000acd3	-6.1998e-41
237	0x80012525	-1.0516e-40
238	0x0001bd3b	1.59719e-40
239	0x0002bd33	2.51543e-40
240	0x0003e31c	3.56978e-40
241	0x8003a1d2	-3.33557e-40
242	0x80011eda	-1.02903e-40
243	0x0000d761	7.7263e-41
244	0x80002acd	-1.5354e-41
245	0x8000952e	-5.3516e-41
246	0x0000c1b7	6.9492e-41
247	0x00008479	4.7522e-41
248	0x00001b0a	9.7e-42
249	0x00000339	1.156e-42
250	0x00001336	6.892e-42
251	0x8000bfcf	-6.8808e-41
252	0x80001511	-7.557e-42
253	0x80003782	-1.9912e-41
254	0x80006311	-3.5538e-41
255	0x00006164	3.4937e-41

conv3.0.bias f4 [64]
0	0xaa491d45	-1.7862541e-13
1	0x3cad1d75	0.02113221
2	0xb6d0d231	-6.2233526e-06
3	0xbb728f1c	-0.003701157
4	0xbcf5cd3d	-0.030005092
5	0xbaea7241	-0.0017886834
6	0xb96e341b	-0.0002271686
7	0xbbbaf6c4	-0.0057056863
8	0x3d45cb87	0.048289802
9	0xbba6c158	-0.0050889663
10	0xbd1f99a4	-0.038964882
11	0x3cd6f9ad	0.026242102
12	0x3c229c4e	0.009924961
13	0x3d4daef4	0.050215676
14	0x3dacdca4	0.08440521
15	0xbd0bcf36	-0.03413316
16	0xbd15d966	-0.03658428
17	0x3d02a942	0.031899698
18	0x3c50e7b4	0.012750555
19	0xbd011bfe	-0.031520836
20	0xbd08436c	-0.033267424
21	0xbc8da45e	-0.01729029
22	0xb9e56674	-0.00043754617
23	0xbd6c9401	-0.057758335
24	0xbc29c0e0	-0.010360926
25	0x3c70ddeb	0.014701347
26	0x1d37e84a	2.4339939e-21
27	0x3cce520a	0.025185604
28	0x3da22061	0.07916332
29	0x3c93f394	0.018060483
30	0xb9a45b8e	-0.0003134873
31	0xbd4137fe	-0.04717254
32	0x3d6e6040	0.05819726
33	0x3d499502	0.04921437
34	0x3cdcc279	0.0269482
35	0xbd64c4f8	-0.055851907
36	0x3b9f5142	0.0048619816
37	0xbcb08003	-0.021545416
38	0xbd225ef7	-0.039641347
39	0xb1cbd1df	-5.931937e-09
40	0x3de1357f	0.10996532
41	0xba92f909	-0.0011213134
42	0xbaf4aad6	-0.0018666636
43	0x3d05e380	0.032687664
44	0xb8758f4d	-5.854601e-05
45	0xbb9114d6	-0.0044275327
46	0xbc17b9a3	-0.009260568
47	0xbcc371ca	-0.02385797
48	0xbd0b4319	-0.033999536
49	0xbb4b7e08	-0.0031050462
50	0xbcbaaa0c	-0.022786163
51	0x3b251dc0	0.0025194734
52	0x3b8da3ee	0.0043225205
53	0x3bfeeda5	0.0077797943
54	0x3d6e35b4	0.058156684
55	0x9abbb283	-7.762979e-23
56	0x3c7bfd20	0.015380174
57	0xa65b8c4c	-7.6171026e-16
58	0x3b76ebad	0.0037677095
59	0x3c4c3675	0.012464155
60	0xbc59a99a	-0.013285065
61	0x3d91f58e	0.07126914
62	0xa0bf7322	-3.2432847e-19
63	0xbd6e99c6	-0.05825212

head.0.weight f4 [4, 64, 3, 3]
0	0x00006273	3.5317e-41
1	0x8000912f	-5.2082e-41
2	0x80005505	-3.0499e-41
3	0x80007a20	-4.381e-41
4	0x000069fc	3.802e-41
5	0x8000b6f2	-6.5628e-41
6	0x00001e73	1.0923e-41
7	0x00007e12	4.5226e-41
8	0x8000b288	-6.4045e-41
9	0x3d124652	0.035711594
10	0xbd186124	-0.037202016
11	0xbcb44097	-0.022003455
12	0x3d3a98ea	0.045555986
13	0x3ca166e0	0.019702375
14	0x3b6effd7	0.003646841
15	0x3cdf437d	0.02725386
16	0xbd4dfdc2	-0.05029083
17	0xbda8928c	-0.082310766
18	0xbadb0c2a	-0.0016711999
19	0xbaed3c36	-0.0018099609
20	0xbaef1e7e	-0.001824334
21	0xbaf8be20	-0.001897756
22	0xbb0f7f5f	-0.0021895987
23	0xbb105ba1	-0.0022027271
24	0xbaf74e0b	-0.0018867863
25	0xbb0eb019	-0.0021772443
26	0xbb132120	-0.0022450164
27	0xbe054bc3	-0.13017182
28	0xbeb2e446	-0.34939784
29	0xbeaeafd0	-0.3411851
30	0xbde74773	-0.11292925
31	0xbe12f1e4	-0.14350086
32	0xbdb987fa	-0.090591386
33	0x3cd984fa	0.026552666
34	0x3d105fc0	0.035247564
35	0x3dac9aec	0.084279865
36	0x3cca8a35	0.024724105
37	0xbc78e3e6	-0.015191054
38	0xbaf5d9ec	-0.0018756962
39	0xba06df9c	-0.0005145015
40	0x3db93f7a	0.0904531
41	0x3d17aa48	0.037027627
42	0xbd8cfd02	-0.06884195
43	0x3d97c97a	0.074114755
44	0x3ccf4a23	0.025303906
45	0x3df33f17	0.11877268
46	0x3e584628	0.21120512
47	0x3e680e38	0.22661674
48	0x3e575d5d	0.21031709
49	0x3e579037	0.21051107
50	0x3e80d2bc	0.25160778
51	0x3e181fc6	0.1485587
52	0x3e0c0e2a	0.13677278
53	0x3e3a278b	0.18179147
54	0xbe44ff0e	-0.1923792
55	0xbcb9e40b	-0.022691747
56	0x3d8190f4	0.06326476
57	0xbd360f95	-0.044448454
58	0x3e35896c	0.17728204
59	0x3e038901	0.12845232
60	0x3df37b4b	0.11888751
61	0x3df0e2ee	0.117620334
62	0x3e32ad7c	0.17448992
63	0x3c2fad52	0.010722475
64	0x3c888bfb	0.01666831
65	0x3d99018d	0.07470999
66	0xbd359d03	-0.04433919
67	0xbd5b08e7	-0.053475287
68	0x3d561857	0.052269306
69	0xbbc8b6f0	-0.0061253235
70	0x3dac2174	0.08404818
71	0x3df3a422	0.1189654
72	0x3c360d00	0.011111498
73	0xbd2e815d	-0.04260384
74	0x3d05631e	0.03256523
75	0x3d5968ff	0.053078648
76	0x3d07063c	0.03296493
77	0xbcc1ea59	-0.023671316
78	0x3be77d58	0.0070645027
79	0xbbe992d4	-0.007128099
80	0x3cb8257c	0.022478811
81	0xb84f473f	-4.9419e-05
82	0x36f66fa8	7.34437e-06
83	0xb8169453	-3.5900925e-05
84	0xb850e3a3	-4.9803068e-05
85	0x37bca414	2.2487751e-05
86	0xb60b896f	-2.079261e-06
87	0xb7abf5b6	-2.0499207e-05
88	0x37734ee3	1.4502296e-05
89	0x36d21ede	6.262081e-06
90	0x3d83159f	0.06400608
91	0x3d48fa4f	0.049066838
92	0x3d0e09f6	0.03467747
93	0x3d56afd3	0.052413773
94	0x3d84d825	0.06486539
95	0x3dd565bf	0.10419797
96	0x3d3918f4	0.045189813
97	0x3df64a81	0.12025929
98	0x3e0e4738	0.13894355
99	0x3de2b245	0.110691585
100	0x3d8f281b	0.069900714
101	0x3d456c1a	0.048198797
102	0x3d236e22	0.039899953
103	0x3d065bd8	0.032802433
104	0xbd37e623	-0.04489721
105	0xbe12b20f	-0.14325736
106	0xbe3eaf49	-0.18621553
107	0xbe28e6e9	-0.16494335
108	0xbd126c07	-0.035747554
109	0x3cb5ac9a	0.02217703
110	0x3e1cd4ee	0.15315601
111	0xbdc460aa	-0.0958875
112	0x3c56c90a	0.013109455
113	0x3d9f04e6	0.07764606
114	0xbdc8ac07	-0.097984366
115	0xbda66040	-0.08123827
116	0x3d722d2c	0.05912511
117	0xbd9b2844	-0.075760394
118	0xbd903018	-0.07040423
119	0xbdc93274	-0.09824076
120	0xbdf9b2e7	-0.12192326
121	0xbe7006ff	-0.23440169
122	0xbe00e5f8	-0.12587726
123	0xbe0a5bf7	-0.13511644
124	0xbe827830	-0.2548232
125	0xbe5b22b5	-0.21399958
126	0x3ccaa74b	0.024737975
127	0x3d8aeccc	0.06783447
128	0x3e618896	0.2202476
129	0xbda219bc	-0.07915065
130	0xbd9f4186	-0.077761695
131	0x3d8a8be8	0.06764966
132	0xbe1ded26	-0.15422496
133	0xbe71d4c0	-0.23616314
134	0x3c321423	0.010869059
135	0x3e093636	0.13399586
136	0x3e4aa88f	0.19790863
137	0x3d2da962	0.042397864
138	0xbca4d1a9	-0.020119505
139	0x3e174afc	0.14774698
140	0x3de32c06	0.11092381
141	0x3dc2db05	0.09514431
142	0x3d238ba4	0.039928094
143	0x3e183082	0.14862254
144	0xbd5f3165	-0.054490466
145	0xbb561257	-0.003266474
146	0x3d37c33b	0.04486392
147	0x3d5d5fbd	0.05404638
148	0x3cde8638	0.02716361
149	0x3d9fda59	0.078053184
150	0x3d625512	0.05525691
151	0x3d8d22da	0.06891413
152	0x3dda2a1c	0.10652563
153	0xbcb5e601	-0.022204401
154	0x3d4bbf96	0.049743257
155	0xbc22abd3	-0.009928661
156	0x3d2cf5d2	0.04222662
157	0x3d1a0c43	0.03760935
158	0x3d32abbd	0.043620814
159	0xbce3a055	-0.027786413
160	0x3cf0f862	0.029415313
161	0xbd54aaa1	-0.051920537
162	0x3de91eb4	0.11382809
163	0x3d4b3ada	0.049616672
164	0xbe13b6a3	-0.14425139
165	0x3d74dd9a	0.05978165
166	0xbd10bdb6	-0.035337172
167	0xbe44d809	-0.19223036
168	0x3d4df86f	0.050285753
169	0xbdededcd	-0.116176225
170	0xbe46af67	-0.19402848
171	0x3db2a139	0.08722157
172	0x3d9e620b	0.07733544
173	0x3cfe4374	0.031038024
174	0x3d9ee09e	0.07757686
175	0xba96f115	-0.001151594
176	0x3d1f02d4	0.038821056
177	0x3d832590	0.06403649
178	0x3e185b55	0.1487859
179	0x3e091f6c	0.13390893
180	0xbdf99817	-0.12187212
181	0xbdffc803	-0.12489321
182	0x3cfde5d7	0.030993385
183	0xbd8139a8	-0.06309825
184	0xbd280a01	-0.041025165
185	0x3d887f9b	0.06664964
186	0x3cbd2544	0.023089059
187	0x3d9d1cd7	0.076715164
188	0x3e4227d4	0.18960506
189	0x3ac0cdea	0.0014709805
190	0x3dafdabf	0.085866444
191	0x3dc25ed0	0.0949074
192	0x3d543305	0.05180647
193	0x3d37029b	0.04468022
194	0x3db46454	0.088081986
195	0x3d250404	0.040287033
196	0x3e05dbaf	0.13072084
197	0x3de6c2f8	0.11267656
198	0x3b1f4f02	0.0024308567
199	0x3a180ab3	0.0005799934
200	0x3b120f58	0.0022286978
201	0x3b32bcb1	0.0027273113
202	0x39d48c7c	0.0004054046
203	0xbb7d3928	-0.0038638804
204	0x3ab2aab7	0.0013631199
205	0xbb81746a	-0.003950645
206	0x3b3854a2	0.0028126617
207	0xbc79ca53	-0.015245992
208	0x3c40e899	0.011774206
209	0x3b4eaaba	0.0031534866
210	0xbc643c5e	-0.013930408
211	0x3ded557f	0.11588573
212	0x3db8a628	0.09016067
213	0x3d26ffd9	0.04077134
214	0x3e0b5b29	0.13608994
215	0x3dd19d9f	0.10235142
216	0xbd2974bd	-0.041371096
217	0x3d2ba0a8	0.04190126
218	0xbbdafb47	-0.0066827866
219	0x3cbb911e	0.022896346
220	0x3dc310f4	0.09524718
221	0x3d45bd8b	0.048276465
222	0xbcdc7a15	-0.026913682
223	0x3c9e992d	0.01936015
224	0xbc48335a	-0.012219274
225	0xbd9512cc	-0.07278976
226	0xbdc04ac4	-0.093892604
227	0xbe10d2c7	-0.14142905
228	0xbdb46ae2	-0.08809449
229	0xbd353137	-0.044236388
230	0xbd674357	-0.056460705
231	0x3a1f9307	0.00060872774
232	0xbd24ee8d	-0.040266562
233	0xbd50304c	-0.05082731
234	0x15d056e2	8.414761e-26
235	0x96fce585	-4.0857643e-25
236	0x1554bf79	4.2964104e-26
237	0x934f03c1	-2.6128924e-27
238	0x0fada642	1.7123157e-29
239	0x161f9889	1.2892049e-25
240	0x17f8a35f	1.6067865e-24
241	0x976ac0c7	-7.5852797e-25
242	0x16a9d696	2.7438845e-25
243	0xbd67fa24	-0.056635037
244	0x3e06eb28	0.13175642
245	0x3d9f338a	0.07773502
246	0x3cc17259	0.023614096
247	0x3e9932ed	0.29921666
248	0x3e30dd3b	0.17271893
249	0x3cbeec62	0.023306075
250	0x3d219b96	0.03945502
251	0x3dc2058a	0.09473713
252	0x3d5c20aa	0.05374209
253	0x3c5a8855	0.013338168
254	0x3c66f6d8	0.014096938
255	0x3c9845d5	0.018587986

head.0.bias f4 [4]
0	0xbd00baa8	-0.03142801
1	0xbc0db8e1	-0.008650036
2	0x3d90f47e	0.07077883
3	0xbd1e3e0a	-0.038633384
